…
2025-05-06 13:57:58.377145: I tensorflow/core/common_runtime/gpu/gpu_device.cc:1929] Created device /job:localhost/replica:0/task:0/device:GPU:0 with 18446 MB memory:  -> device: 0, name: NVIDIA RTX 4000 Ada Generation, pci bus id: 0000:c2:00.0, compute capability: 8.9
Model: "model"
__________________________________________________________________________________________________
 Layer (type)                Output Shape                 Param #   Connected to
==================================================================================================
 input_1 (InputLayer)        [(None, 64, 45)]             0         []

 dense (Dense)               (None, 64, 256)              11776     ['input_1[0][0]']

 tf.__operators__.add (TFOp  (None, 64, 256)              0         ['dense[0][0]']
 Lambda)

 layer_normalization (Layer  (None, 64, 256)              512       ['tf.__operators__.add[0][0]']
 Normalization)

 multi_head_attention (Mult  (None, 64, 256)              2103552   ['layer_normalization[0][0]',
 iHeadAttention)                                                     'layer_normalization[0][0]']

 dropout (Dropout)           (None, 64, 256)              0         ['multi_head_attention[0][0]']

 tf.__operators__.add_1 (TF  (None, 64, 256)              0         ['dropout[0][0]',
 OpLambda)                                                           'dense[0][0]']

 layer_normalization_1 (Lay  (None, 64, 256)              512       ['tf.__operators__.add_1[0][0]
 erNormalization)                                                   ']

 dense_1 (Dense)             (None, 64, 1024)             263168    ['layer_normalization_1[0][0]'
                                                                    ]

 dense_2 (Dense)             (None, 64, 256)              262400    ['dense_1[0][0]']

 dropout_1 (Dropout)         (None, 64, 256)              0         ['dense_2[0][0]']

 tf.__operators__.add_2 (TF  (None, 64, 256)              0         ['dropout_1[0][0]',
 OpLambda)                                                           'tf.__operators__.add_1[0][0]
                                                                    ']

 tf.__operators__.add_3 (TF  (None, 64, 256)              0         ['tf.__operators__.add_2[0][0]
 OpLambda)                                                          ']

 layer_normalization_2 (Lay  (None, 64, 256)              512       ['tf.__operators__.add_3[0][0]
 erNormalization)                                                   ']

 multi_head_attention_1 (Mu  (None, 64, 256)              2103552   ['layer_normalization_2[0][0]'
 ltiHeadAttention)                                                  , 'layer_normalization_2[0][0]
                                                                    ']

 dropout_2 (Dropout)         (None, 64, 256)              0         ['multi_head_attention_1[0][0]
                                                                    ']

 tf.__operators__.add_4 (TF  (None, 64, 256)              0         ['dropout_2[0][0]',
 OpLambda)                                                           'tf.__operators__.add_2[0][0]
                                                                    ']

 layer_normalization_3 (Lay  (None, 64, 256)              512       ['tf.__operators__.add_4[0][0]
 erNormalization)                                                   ']

 dense_3 (Dense)             (None, 64, 1024)             263168    ['layer_normalization_3[0][0]'
                                                                    ]

 dense_4 (Dense)             (None, 64, 256)              262400    ['dense_3[0][0]']

 dropout_3 (Dropout)         (None, 64, 256)              0         ['dense_4[0][0]']

 tf.__operators__.add_5 (TF  (None, 64, 256)              0         ['dropout_3[0][0]',
 OpLambda)                                                           'tf.__operators__.add_4[0][0]
                                                                    ']

 tf.__operators__.add_6 (TF  (None, 64, 256)              0         ['tf.__operators__.add_5[0][0]
 OpLambda)                                                          ']

 layer_normalization_4 (Lay  (None, 64, 256)              512       ['tf.__operators__.add_6[0][0]
 erNormalization)                                                   ']

 multi_head_attention_2 (Mu  (None, 64, 256)              2103552   ['layer_normalization_4[0][0]'
 ltiHeadAttention)                                                  , 'layer_normalization_4[0][0]
                                                                    ']

 dropout_4 (Dropout)         (None, 64, 256)              0         ['multi_head_attention_2[0][0]
                                                                    ']

 tf.__operators__.add_7 (TF  (None, 64, 256)              0         ['dropout_4[0][0]',
 OpLambda)                                                           'tf.__operators__.add_5[0][0]
                                                                    ']

 layer_normalization_5 (Lay  (None, 64, 256)              512       ['tf.__operators__.add_7[0][0]
 erNormalization)                                                   ']

 dense_5 (Dense)             (None, 64, 1024)             263168    ['layer_normalization_5[0][0]'
                                                                    ]

 dense_6 (Dense)             (None, 64, 256)              262400    ['dense_5[0][0]']

 dropout_5 (Dropout)         (None, 64, 256)              0         ['dense_6[0][0]']

 tf.__operators__.add_8 (TF  (None, 64, 256)              0         ['dropout_5[0][0]',
 OpLambda)                                                           'tf.__operators__.add_7[0][0]
                                                                    ']

 tf.__operators__.add_9 (TF  (None, 64, 256)              0         ['tf.__operators__.add_8[0][0]
 OpLambda)                                                          ']

 layer_normalization_6 (Lay  (None, 64, 256)              512       ['tf.__operators__.add_9[0][0]
 erNormalization)                                                   ']

 multi_head_attention_3 (Mu  (None, 64, 256)              2103552   ['layer_normalization_6[0][0]'
 ltiHeadAttention)                                                  , 'layer_normalization_6[0][0]
                                                                    ']

 dropout_6 (Dropout)         (None, 64, 256)              0         ['multi_head_attention_3[0][0]
                                                                    ']

 tf.__operators__.add_10 (T  (None, 64, 256)              0         ['dropout_6[0][0]',
 FOpLambda)                                                          'tf.__operators__.add_8[0][0]
                                                                    ']

 layer_normalization_7 (Lay  (None, 64, 256)              512       ['tf.__operators__.add_10[0][0
 erNormalization)                                                   ]']

 dense_7 (Dense)             (None, 64, 1024)             263168    ['layer_normalization_7[0][0]'
                                                                    ]

 dense_8 (Dense)             (None, 64, 256)              262400    ['dense_7[0][0]']

 dropout_7 (Dropout)         (None, 64, 256)              0         ['dense_8[0][0]']

 tf.__operators__.add_11 (T  (None, 64, 256)              0         ['dropout_7[0][0]',
 FOpLambda)                                                          'tf.__operators__.add_10[0][0
                                                                    ]']

 tf.__operators__.getitem (  (None, 256)                  0         ['tf.__operators__.add_11[0][0
 SlicingOpLambda)                                                   ]']

 dense_9 (Dense)             (None, 45)                   11565     ['tf.__operators__.getitem[0][
                                                                    0]']

==================================================================================================
Total params: 10543917 (40.22 MB)
Trainable params: 10543917 (40.22 MB)
Non-trainable params: 0 (0.00 Byte)
__________________________________________________________________________________________________
…
